…
&lt;div class=&quot;highlighter-rouge&quot;&gt;&lt;div class=&quot;highlight&quot;&gt;&lt;pre class=&quot;highlight&quot;&gt;&lt;code&gt;Model: &quot;functional_1&quot;
__________________________________________________________________________________________________
Layer (type)                    Output Shape         Param #     Connected to                     
==================================================================================================
input_1 (InputLayer)            [(None, 168, 1)]     0                                            
__________________________________________________________________________________________________
conv1d (Conv1D)                 (None, 168, 128)     512         input_1[0][0]                    
__________________________________________________________________________________________________
conv1d_1 (Conv1D)               (None, 168, 128)     49280       conv1d[0][0]                     
__________________________________________________________________________________________________
batch_normalization (BatchNorma (None, 168, 128)     512         conv1d_1[0][0]                   
__________________________________________________________________________________________________
max_pooling1d (MaxPooling1D)    (None, 84, 128)      0           batch_normalization[0][0]        
__________________________________________________________________________________________________
dropout (Dropout)               (None, 84, 128)      0           max_pooling1d[0][0]              
__________________________________________________________________________________________________
conv1d_2 (Conv1D)               (None, 84, 256)      98560       dropout[0][0]                    
__________________________________________________________________________________________________
conv1d_3 (Conv1D)               (None, 84, 256)      196864      conv1d_2[0][0]                   
__________________________________________________________________________________________________
batch_normalization_1 (BatchNor (None, 84, 256)      1024        conv1d_3[0][0]                   
__________________________________________________________________________________________________
max_pooling1d_1 (MaxPooling1D)  (None, 42, 256)      0           batch_normalization_1[0][0]      
__________________________________________________________________________________________________
dropout_1 (Dropout)             (None, 42, 256)      0           max_pooling1d_1[0][0]            
__________________________________________________________________________________________________
conv1d_4 (Conv1D)               (None, 42, 256)      196864      dropout_1[0][0]                  
__________________________________________________________________________________________________
conv1d_5 (Conv1D)               (None, 42, 256)      196864      conv1d_4[0][0]                   
__________________________________________________________________________________________________
batch_normalization_2 (BatchNor (None, 42, 256)      1024        conv1d_5[0][0]                   
__________________________________________________________________________________________________
average_pooling1d (AveragePooli (None, 21, 256)      0           batch_normalization_2[0][0]      
__________________________________________________________________________________________________
dropout_2 (Dropout)             (None, 21, 256)      0           average_pooling1d[0][0]          
__________________________________________________________________________________________________
conv1d_6 (Conv1D)               (None, 21, 512)      393728      dropout_2[0][0]                  
__________________________________________________________________________________________________
conv1d_transpose (Conv1DTranspo (None, 42, 128)      196736      conv1d_6[0][0]                   
__________________________________________________________________________________________________
concatenate (Concatenate)       (None, 42, 384)      0           conv1d_transpose[0][0]           
                                                                 conv1d_5[0][0]                   
__________________________________________________________________________________________________
dropout_3 (Dropout)             (None, 42, 384)      0           concatenate[0][0]                
__________________________________________________________________________________________________
conv1d_7 (Conv1D)               (None, 42, 128)      147584      dropout_3[0][0]                  
__________________________________________________________________________________________________
conv1d_8 (Conv1D)               (None, 42, 128)      49280       conv1d_7[0][0]                   
__________________________________________________________________________________________________
batch_normalization_3 (BatchNor (None, 42, 128)      512         conv1d_8[0][0]                   
__________________________________________________________________________________________________
dropout_4 (Dropout)             (None, 42, 128)      0           batch_normalization_3[0][0]      
__________________________________________________________________________________________________
conv1d_transpose_1 (Conv1DTrans (None, 84, 128)      49280       dropout_4[0][0]                  
__________________________________________________________________________________________________
concatenate_1 (Concatenate)     (None, 84, 384)      0           conv1d_transpose_1[0][0]         
                                                                 conv1d_3[0][0]                   
__________________________________________________________________________________________________
dropout_5 (Dropout)             (None, 84, 384)      0           concatenate_1[0][0]              
__________________________________________________________________________________________________
conv1d_9 (Conv1D)               (None, 84, 128)      147584      dropout_5[0][0]                  
__________________________________________________________________________________________________
conv1d_10 (Conv1D)              (None, 84, 128)      49280       conv1d_9[0][0]                   
__________________________________________________________________________________________________
batch_normalization_4 (BatchNor (None, 84, 128)      512         conv1d_10[0][0]                  
__________________________________________________________________________________________________
dropout_6 (Dropout)             (None, 84, 128)      0           batch_normalization_4[0][0]      
__________________________________________________________________________________________________
conv1d_transpose_2 (Conv1DTrans (None, 168, 128)     49280       dropout_6[0][0]                  
__________________________________________________________________________________________________
concatenate_2 (Concatenate)     (None, 168, 256)     0           conv1d_transpose_2[0][0]         
                                                                 conv1d_1[0][0]                   
__________________________________________________________________________________________________
dropout_7 (Dropout)             (None, 168, 256)     0           concatenate_2[0][0]              
__________________________________________________________________________________________________
conv1d_11 (Conv1D)              (None, 168, 128)     98432       dropout_7[0][0]                  
__________________________________________________________________________________________________
conv1d_12 (Conv1D)              (None, 168, 128)     49280       conv1d_11[0][0]                  
__________________________________________________________________________________________________
batch_normalization_5 (BatchNor (None, 168, 128)     512         conv1d_12[0][0]                  
__________________________________________________________________________________________________
dropout_8 (Dropout)             (None, 168, 128)     0           batch_normalization_5[0][0]      
__________________________________________________________________________________________________
flatten (Flatten)               (None, 21504)        0           dropout_8[0][0]                  
__________________________________________________________________________________________________
dense (Dense)                   (None, 256)          5505280     flatten[0][0]                    
__________________________________________________________________________________________________
dense_1 (Dense)                 (None, 128)          32896       dense[0][0]                      
__________________________________________________________________________________________________
dense_2 (Dense)                 (None, 1)            129         dense_1[0][0]                    
==================================================================================================
Total params: 7,511,809
Trainable params: 7,509,761
Non-trainable params: 2,048
__________________________________________________________________________________________________
&lt;/code&gt;&lt;/pre&gt;&lt;/div&gt;&lt;/div&gt;

&lt;div class=&quot;language
…
&lt;div class=&quot;language-python highlighter-rouge&quot;&gt;&lt;div class=&quot;highlight&quot;&gt;&lt;pre class=&quot;highlight&quot;&gt;&lt;code&gt;&lt;span class=&quot;n&quot;&gt;model&lt;/span&gt;&lt;span class=&quot;p&quot;&gt;.&lt;/span&gt;&lt;span class=&quot;n&quot;&gt;summary&lt;/span&gt;&lt;span class=&quot;p&quot;&gt;()&lt;/span&gt;
&lt;/code&gt;&lt;/pre&gt;&lt;/div&gt;&lt;/div&gt;

&lt;div class=&quot;highlighter-rouge&quot;&gt;&lt;div class=&quot;highlight&quot;&gt;&lt;pre class=&quot;highlight&quot;&gt;&lt;code&gt;Model: &quot;default_model&quot;
_________________________________________________________________
Layer (type)                 Output Shape              Param #   
=================================================================
conv2d_1 (Conv2D)            (None, 256, 256, 32)      896       
_________________________________________________________________
conv2d_2 (Conv2D)            (None, 256, 256, 32)      9248      
_________________________________________________________________
max_pooling2d_1 (MaxPooling2 (None, 128, 128, 32)      0         
_________________________________________________________________
conv2d_3 (Conv2D)            (None, 128, 128, 64)      18496     
_________________________________________________________________
conv2d_4 (Conv2D)            (None, 128, 128, 64)      36928     
_________________________________________________________________
max_pooling2d_2 (MaxPooling2 (None, 64, 64, 64)        0         
_________________________________________________________________
conv2d_5 (Conv2D)            (None, 64, 64, 128)       73856     
_________________________________________________________________
conv2d_6 (Conv2D)            (None, 64, 64, 128)       147584    
_________________________________________________________________
max_pooling2d_3 (MaxPooling2 (None, 32, 32, 128)       0         
_________________________________________________________________
flatten_1 (Flatten)          (None, 131072)            0         
_________________________________________________________________
dense_1 (Dense)              (None, 512)               67109376  
_________________________________________________________________
dense_2 (Dense)              (None, 3)                 1539      
=================================================================
Total params: 67,397,923
Trainable params: 67,397,923
Non-trainable params: 0
_________________________________________________________________
&lt;/code&gt;&lt;/pre&gt;&lt;/div&gt;&lt;/div&gt;

&lt;div class=&quot;language-python highlighter-rouge&quot;&gt;&lt;div class=&quot;highlight&quot;&gt;&lt;pre class=&quot;highlight&
…
&lt;div class=&quot;language-python highlighter-rouge&quot;&gt;&lt;div class=&quot;highlight&quot;&gt;&lt;pre class=&quot;highlight&quot;&gt;&lt;code&gt;&lt;span class=&quot;n&quot;&gt;model&lt;/span&gt;&lt;span class=&quot;p&quot;&gt;.&lt;/span&gt;&lt;span class=&quot;n&quot;&gt;summary&lt;/span&gt;&lt;span class=&quot;p&quot;&gt;()&lt;/span&gt;
&lt;/code&gt;&lt;/pre&gt;&lt;/div&gt;&lt;/div&gt;

&lt;div class=&quot;highlighter-rouge&quot;&gt;&lt;div class=&quot;highlight&quot;&gt;&lt;pre class=&quot;highlight&quot;&gt;&lt;code&gt;Model: &quot;resnet_model&quot;
__________________________________________________________________________________________________
Layer (type)                    Output Shape         Param #     Connected to                     
==================================================================================================
input_8 (InputLayer)            (None, 256, 256, 3)  0                                            
__________________________________________________________________________________________________
conv1_pad (ZeroPadding2D)       (None, 262, 262, 3)  0           input_8[0][0]                    
__________________________________________________________________________________________________
conv1 (Conv2D)                  (None, 128, 128, 64) 9472        conv1_pad[0][0]                  
__________________________________________________________________________________________________
bn_conv1 (BatchNormalization)   (None, 128, 128, 64) 256         conv1[0][0]                      
__________________________________________________________________________________________________
activation_246 (Activation)     (None, 128, 128, 64) 0           bn_conv1[0][0]                   
__________________________________________________________________________________________________
pool1_pad (ZeroPadding2D)       (None, 130, 130, 64) 0           activation_246[0][0]             
__________________________________________________________________________________________________
max_pooling2d_17 (MaxPooling2D) (None, 64, 64, 64)   0           pool1_pad[0][0]                  
__________________________________________________________________________________________________
res2a_branch2a (Conv2D)         (None, 64, 64, 64)   4160        max_pooling2d_17[0][0]           
__________________________________________________________________________________________________
bn2a_branch2a (BatchNormalizati (None, 64, 64, 64)   256         res2a_branch2a[0][0]             
__________________________________________________________________________________________________
activation_247 (Activation)     (None, 64, 64, 64)   0           bn2a_branch2a[0][0]              
__________________________________________________________________________________________________
res2a_branch2b (Conv2D)         (None, 64, 64, 64)   36928       activation_247[0][0]             
__________________________________________________________________________________________________
bn2a_branch2b (BatchNormalizati (None, 64, 64, 64)   256         res2a_branch2b[0][0]             
__________________________________________________________________________________________________
activation_248 (Activation)     (None, 64, 64, 64)   0           bn2a_branch2b[0][0]              
__________________________________________________________________________________________________
res2a_branch2c (Conv2D)         (None, 64, 64, 256)  16640       activation_248[0][0]             
__________________________________________________________________________________________________
res2a_branch1 (Conv2D)          (None, 64, 64, 256)  16640       max_pooling2d_17[0][0]           
__________________________________________________________________________________________________
bn2a_branch2c (BatchNormalizati (None, 64, 64, 256)  1024        res2a_branch2c[0][0]             
__________________________________________________________________________________________________
bn2a_branch1 (BatchNormalizatio (None, 64, 64, 256)  1024        res2a_branch1[0][0]              
__________________________________________________________________________________________________
add_81 (Add)                    (None, 64, 64, 256)  0           bn2a_branch2c[0][0]              
                                                                 bn2a_branch1[0][0]               
__________________________________________________________________________________________________
activation_249 (Activation)     (None, 64, 64, 256)  0           add_81[0][0]                     
__________________________________________________________________________________________________
res2b_branch2a (Conv2D)         (None, 64, 64, 64)   16448       activation_249[0][0]             
__________________________________________________________________________________________________
bn2b_branch2a (BatchNormalizati (None, 64, 64, 64)   256         res2b_branch2a[0][0]             
__________________________________________________________________________________________________
activation_250 (Activation)     (None, 64, 64, 64)   0           bn2b_branch2a[0][0]              
__________________________________________________________________________________________________
res2b_branch2b (Conv2D)         (None, 64, 64, 64)   36928       activation_250[0][0]             
__________________________________________________________________________________________________
bn2b_branch2b (BatchNormalizati (None, 64, 64, 64)   256         res2b_branch2b[0][0]             
__________________________________________________________________________________________________
activation_251 (Activation)     (None, 64, 64, 64)   0           bn2b_branch2b[0][0]              
__________________________________________________________________________________________________
res2b_branch2c (Conv2D)         (None, 64, 64, 256)  16640       activation_251[0][0]             
__________________________________________________________________________________________________
bn2b_branch2c (BatchNormalizati (None, 64, 64, 256)  1024        res2b_branch2c[0][0]             
__________________________________________________________________________________________________
add_82 (Add)                    (None, 64, 64, 256)  0           bn2b_branch2c[0][0]              
                                                                 activation_249[0][0]             
__________________________________________________________________________________________________
activation_252 (Activation)     (None, 64, 64, 256)  0           add_82[0][0]                     
__________________________________________________________________________________________________
res2c_branch2a (Conv2D)         (None, 64, 64, 64)   16448       activation_252[0][0]             
__________________________________________________________________________________________________
bn2c_branch2a (BatchNormalizati (None, 64, 64, 64)   256         res2c_branch2a[0][0]             
__________________________________________________________________________________________________
activation_253 (Activation)     (None, 64, 64, 64)   0           bn2c_branch2a[0][0]              
__________________________________________________________________________________________________
res2c_branch2b (Conv2D)         (None, 64, 64, 64)   36928       activation_253[0][0]             
__________________________________________________________________________________________________
bn2c_branch2b (BatchNormalizati (None, 64, 64, 64)   256         res2c_branch2b[0][0]             
__________________________________________________________________________________________________
activation_254 (Activation)     (None, 64, 64, 64)   0           bn2c_branch2b[0][0]              
__________________________________________________________________________________________________
res2c_branch2c (Conv2D)         (None, 64, 64, 256)  16640       activation_254[0][0]             
__________________________________________________________________________________________________
bn2c_branch2c (BatchNormalizati (None, 64, 64, 256)  1024        res2c_branch2c[0][0]             
__________________________________________________________________________________________________
add_83 (Add)                    (None, 64, 64, 256)  0           bn2c_branch2c[0][0]              
                                                                 activation_252[0][0]             
__________________________________________________________________________________________________
activation_255 (Activation)     (None, 64, 64, 256)  0           add_83[0][0]                     
__________________________________________________________________________________________________
res3a_branch2a (Conv2D)         (None, 32, 32, 128)  32896       activation_255[0][0]             
__________________________________________________________________________________________________
bn3a_branch2a (BatchNormalizati (None, 32, 32, 128)  512         res3a_branch2a[0][0]             
__________________________________________________________________________________________________
activation_256 (Activation)     (None, 32, 32, 128)  0           bn3a_branch2a[0][0]              
__________________________________________________________________________________________________
res3a_branch2b (Conv2D)         (None, 32, 32, 128)  147584      activation_256[0][0]             
__________________________________________________________________________________________________
bn3a_branch2b (BatchNormalizati (None, 32, 32, 128)  512         res3a_branch2b[0][0]             
__________________________________________________________________________________________________
activation_257 (Activation)     (None, 32, 32, 128)  0           bn3a_branch2b[0][0]              
__________________________________________________________________________________________________
res3a_branch2c (Conv2D)         (None, 32, 32, 512)  66048       activation_257[0][0]             
__________________________________________________________________________________________________
res3a_branch1 (Conv2D)          (None, 32, 32, 512)  131584      activation_255[0][0]             
__________________________________________________________________________________________________
bn3a_branch2c (BatchNormalizati (None, 32, 32, 512)  2048        res3a_branch2c[0][0]             
__________________________________________________________________________________________________
bn3a_branch1 (BatchNormalizatio (None, 32, 32, 512)  2048        res3a_branch1[0][0]              
__________________________________________________________________________________________________
add_84 (Add)                    (None, 32, 32, 512)  0           bn3a_branch2c[0][0]              
                                                                 bn3a_branch1[0][0]               
__________________________________________________________________________________________________
activation_258 (Activation)     (None, 32, 32, 512)  0           add_84[0][0]                     
__________________________________________________________________________________________________
res3b_branch2a (Conv2D)         (None, 32, 32, 128)  65664       activation_258[0][0]             
__________________________________________________________________________________________________
bn3b_branch2a (BatchNormalizati (None, 32, 32, 128)  512         res3b_branch2a[0][0]             
__________________________________________________________________________________________________
activation_259 (Activation)     (None, 32, 32, 128)  0           bn3b_branch2a[0][0]              
__________________________________________________________________________________________________
res3b_branch2b (Conv2D)         (None, 32, 32, 128)  147584      activation_259[0][0]             
__________________________________________________________________________________________________
bn3b_branch2b (BatchNormalizati (None, 32, 32, 128)  512         res3b_branch2b[0][0]             
__________________________________________________________________________________________________
activation_260 (Activation)     (None, 32, 32, 128)  0           bn3b_branch2b[0][0]              
__________________________________________________________________________________________________
res3b_branch2c (Conv2D)         (None, 32, 32, 512)  66048       activation_260[0][0]             
__________________________________________________________________________________________________
bn3b_branch2c (BatchNormalizati (None, 32, 32, 512)  2048        res3b_branch2c[0][0]             
__________________________________________________________________________________________________
add_85 (Add)                    (None, 32, 32, 512)  0           bn3b_branch2c[0][0]              
                                                                 activation_258[0][0]             
__________________________________________________________________________________________________
activation_261 (Activation)     (None, 32, 32, 512)  0           add_85[0][0]                     
__________________________________________________________________________________________________
res3c_branch2a (Conv2D)         (None, 32, 32, 128)  65664       activation_261[0][0]             
__________________________________________________________________________________________________
bn3c_branch2a (BatchNormalizati (None, 32, 32, 128)  512         res3c_branch2a[0][0]             
__________________________________________________________________________________________________
activation_262 (Activation)     (None, 32, 32, 128)  0           bn3c_branch2a[0][0]              
__________________________________________________________________________________________________
res3c_branch2b (Conv2D)         (None, 32, 32, 128)  147584      activation_262[0][0]             
__________________________________________________________________________________________________
bn3c_branch2b (BatchNormalizati (None, 32, 32, 128)  512         res3c_branch2b[0][0]             
__________________________________________________________________________________________________
activation_263 (Activation)     (None, 32, 32, 128)  0           bn3c_branch2b[0][0]              
__________________________________________________________________________________________________
res3c_branch2c (Conv2D)         (None, 32, 32, 512)  66048       activation_263[0][0]             
__________________________________________________________________________________________________
bn3c_branch2c (BatchNormalizati (None, 32, 32, 512)  2048        res3c_branch2c[0][0]             
__________________________________________________________________________________________________
add_86 (Add)                    (None, 32, 32, 512)  0           bn3c_branch2c[0][0]              
                                                                 activation_261[0][0]             
__________________________________________________________________________________________________
activation_264 (Activation)     (None, 32, 32, 512)  0           add_86[0][0]                     
__________________________________________________________________________________________________
res3d_branch2a (Conv2D)         (None, 32, 32, 128)  65664       activation_264[0][0]             
__________________________________________________________________________________________________
bn3d_branch2a (BatchNormalizati (None, 32, 32, 128)  512         res3d_branch2a[0][0]             
__________________________________________________________________________________________________
activation_265 (Activation)     (None, 32, 32, 128)  0           bn3d_branch2a[0][0]              
__________________________________________________________________________________________________
res3d_branch2b (Conv2D)         (None, 32, 32, 128)  147584      activation_265[0][0]             
__________________________________________________________________________________________________
bn3d_branch2b (BatchNormalizati (None, 32, 32, 128)  512         res3d_branch2b[0][0]             
__________________________________________________________________________________________________
activation_266 (Activation)     (None, 32, 32, 128)  0           bn3d_branch2b[0][0]              
__________________________________________________________________________________________________
res3d_branch2c (Conv2D)         (None, 32, 32, 512)  66048       activation_266[0][0]             
__________________________________________________________________________________________________
bn3d_branch2c (BatchNormalizati (None, 32, 32, 512)  2048        res3d_branch2c[0][0]             
__________________________________________________________________________________________________
add_87 (Add)                    (None, 32, 32, 512)  0           bn3d_branch2c[0][0]              
                                                                 activation_264[0][0]             
__________________________________________________________________________________________________
activation_267 (Activation)     (None, 32, 32, 512)  0           add_87[0][0]                     
__________________________________________________________________________________________________
res4a_branch2a (Conv2D)         (None, 16, 16, 256)  131328      activation_267[0][0]             
__________________________________________________________________________________________________
bn4a_branch2a (BatchNormalizati (None, 16, 16, 256)  1024        res4a_branch2a[0][0]             
__________________________________________________________________________________________________
activation_268 (Activation)     (None, 16, 16, 256)  0           bn4a_branch2a[0][0]              
__________________________________________________________________________________________________
res4a_branch2b (Conv2D)         (None, 16, 16, 256)  590080      activation_268[0][0]             
__________________________________________________________________________________________________
bn4a_branch2b (BatchNormalizati (None, 16, 16, 256)  1024        res4a_branch2b[0][0]             
__________________________________________________________________________________________________
activation_269 (Activation)     (None, 16, 16, 256)  0           bn4a_branch2b[0][0]              
__________________________________________________________________________________________________
res4a_branch2c (Conv2D)         (None, 16, 16, 1024) 263168      activation_269[0][0]             
__________________________________________________________________________________________________
res4a_branch1 (Conv2D)          (None, 16, 16, 1024) 525312      activation_267[0][0]             
__________________________________________________________________________________________________
bn4a_branch2c (BatchNormalizati (None, 16, 16, 1024) 4096        res4a_branch2c[0][0]             
__________________________________________________________________________________________________
bn4a_branch1 (BatchNormalizatio (None, 16, 16, 1024) 4096        res4a_branch1[0][0]              
__________________________________________________________________________________________________
add_88 (Add)                    (None, 16, 16, 1024) 0           bn4a_branch2c[0][0]              
                                                                 bn4a_branch1[0][0]               
__________________________________________________________________________________________________
activation_270 (Activation)     (None, 16, 16, 1024) 0           add_88[0][0]                     
__________________________________________________________________________________________________
res4b_branch2a (Conv2D)         (None, 16, 16, 256)  262400      activation_270[0][0]             
__________________________________________________________________________________________________
bn4b_branch2a (BatchNormalizati (None, 16, 16, 256)  1024        res4b_branch2a[0][0]             
__________________________________________________________________________________________________
activation_271 (Activation)     (None, 16, 16, 256)  0           bn4b_branch2a[0][0]              
__________________________________________________________________________________________________
res4b_branch2b (Conv2D)         (None, 16, 16, 256)  590080      activation_271[0][0]             
__________________________________________________________________________________________________
bn4b_branch2b (BatchNormalizati (None, 16, 16, 256)  1024        res4b_branch2b[0][0]             
__________________________________________________________________________________________________
activation_272 (Activation)     (None, 16, 16, 256)  0           bn4b_branch2b[0][0]              
__________________________________________________________________________________________________
res4b_branch2c (Conv2D)         (None, 16, 16, 1024) 263168      activation_272[0][0]             
__________________________________________________________________________________________________
bn4b_branch2c (BatchNormalizati (None, 16, 16, 1024) 4096        res4b_branch2c[0][0]             
__________________________________________________________________________________________________
add_89 (Add)                    (None, 16, 16, 1024) 0           bn4b_branch2c[0][0]              
                                                                 activation_270[0][0]             
__________________________________________________________________________________________________
activation_273 (Activation)     (None, 16, 16, 1024) 0           add_89[0][0]                     
__________________________________________________________________________________________________
res4c_branch2a (Conv2D)         (None, 16, 16, 256)  262400      activation_273[0][0]             
__________________________________________________________________________________________________
bn4c_branch2a (BatchNormalizati (None, 16, 16, 256)  1024        res4c_branch2a[0][0]             
__________________________________________________________________________________________________
activation_274 (Activation)     (None, 16, 16, 256)  0           bn4c_branch2a[0][0]              
__________________________________________________________________________________________________
res4c_branch2b (Conv2D)         (None, 16, 16, 256)  590080      activation_274[0][0]             
__________________________________________________________________________________________________
bn4c_branch2b (BatchNormalizati (None, 16, 16, 256)  1024        res4c_branch2b[0][0]             
__________________________________________________________________________________________________
activation_275 (Activation)     (None, 16, 16, 256)  0           bn4c_branch2b[0][0]              
__________________________________________________________________________________________________
res4c_branch2c (Conv2D)         (None, 16, 16, 1024) 263168      activation_275[0][0]             
__________________________________________________________________________________________________
bn4c_branch2c (BatchNormalizati (None, 16, 16, 1024) 4096        res4c_branch2c[0][0]             
__________________________________________________________________________________________________
add_90 (Add)                    (None, 16, 16, 1024) 0           bn4c_branch2c[0][0]              
                                                                 activation_273[0][0]             
__________________________________________________________________________________________________
activation_276 (Activation)     (None, 16, 16, 1024) 0           add_90[0][0]                     
__________________________________________________________________________________________________
res4d_branch2a (Conv2D)         (None, 16, 16, 256)  262400      activation_276[0][0]             
__________________________________________________________________________________________________
bn4d_branch2a (BatchNormalizati (None, 16, 16, 256)  1024        res4d_branch2a[0][0]             
__________________________________________________________________________________________________
activation_277 (Activation)     (None, 16, 16, 256)  0           bn4d_branch2a[0][0]              
__________________________________________________________________________________________________
res4d_branch2b (Conv2D)         (None, 16, 16, 256)  590080      activation_277[0][0]             
__________________________________________________________________________________________________
bn4d_branch2b (BatchNormalizati (None, 16, 16, 256)  1024        res4d_branch2b[0][0]             
__________________________________________________________________________________________________
activation_278 (Activation)     (None, 16, 16, 256)  0           bn4d_branch2b[0][0]              
__________________________________________________________________________________________________
res4d_branch2c (Conv2D)         (None, 16, 16, 1024) 263168      activation_278[0][0]             
__________________________________________________________________________________________________
bn4d_branch2c (BatchNormalizati (None, 16, 16, 1024) 4096        res4d_branch2c[0][0]             
__________________________________________________________________________________________________
add_91 (Add)                    (None, 16, 16, 1024) 0           bn4d_branch2c[0][0]              
                                                                 activation_276[0][0]             
__________________________________________________________________________________________________
activation_279 (Activation)     (None, 16, 16, 1024) 0           add_91[0][0]                     
__________________________________________________________________________________________________
res4e_branch2a (Conv2D)         (None, 16, 16, 256)  262400      activation_279[0][0]             
__________________________________________________________________________________________________
bn4e_branch2a (BatchNormalizati (None, 16, 16, 256)  1024        res4e_branch2a[0][0]             
__________________________________________________________________________________________________
activation_280 (Activation)     (None, 16, 16, 256)  0           bn4e_branch2a[0][0]              
__________________________________________________________________________________________________
res4e_branch2b (Conv2D)         (None, 16, 16, 256)  590080      activation_280[0][0]             
__________________________________________________________________________________________________
bn4e_branch2b (BatchNormalizati (None, 16, 16, 256)  1024        res4e_branch2b[0][0]             
__________________________________________________________________________________________________
activation_281 (Activation)     (None, 16, 16, 256)  0           bn4e_branch2b[0][0]              
__________________________________________________________________________________________________
res4e_branch2c (Conv2D)         (None, 16, 16, 1024) 263168      activation_281[0][0]             
__________________________________________________________________________________________________
bn4e_branch2c (BatchNormalizati (None, 16, 16, 1024) 4096        res4e_branch2c[0][0]             
__________________________________________________________________________________________________
add_92 (Add)                    (None, 16, 16, 1024) 0           bn4e_branch2c[0][0]              
                                                                 activation_279[0][0]             
__________________________________________________________________________________________________
activation_282 (Activation)     (None, 16, 16, 1024) 0           add_92[0][0]                     
__________________________________________________________________________________________________
res4f_branch2a (Conv2D)         (None, 16, 16, 256)  262400      activation_282[0][0]             
__________________________________________________________________________________________________
bn4f_branch2a (BatchNormalizati (None, 16, 16, 256)  1024        res4f_branch2a[0][0]             
__________________________________________________________________________________________________
activation_283 (Activation)     (None, 16, 16, 256)  0           bn4f_branch2a[0][0]              
__________________________________________________________________________________________________
res4f_branch2b (Conv2D)         (None, 16, 16, 256)  590080      activation_283[0][0]             
__________________________________________________________________________________________________
bn4f_branch2b (BatchNormalizati (None, 16, 16, 256)  1024        res4f_branch2b[0][0]             
__________________________________________________________________________________________________
activation_284 (Activation)     (None, 16, 16, 256)  0           bn4f_branch2b[0][0]              
__________________________________________________________________________________________________
res4f_branch2c (Conv2D)         (None, 16, 16, 1024) 263168      activation_284[0][0]             
__________________________________________________________________________________________________
bn4f_branch2c (BatchNormalizati (None, 16, 16, 1024) 4096        res4f_branch2c[0][0]             
__________________________________________________________________________________________________
add_93 (Add)                    (None, 16, 16, 1024) 0           bn4f_branch2c[0][0]              
                                                                 activation_282[0][0]             
__________________________________________________________________________________________________
activation_285 (Activation)     (None, 16, 16, 1024) 0           add_93[0][0]                     
__________________________________________________________________________________________________
res5a_branch2a (Conv2D)         (None, 8, 8, 512)    524800      activation_285[0][0]             
__________________________________________________________________________________________________
bn5a_branch2a (BatchNormalizati (None, 8, 8, 512)    2048        res5a_branch2a[0][0]             
__________________________________________________________________________________________________
activation_286 (Activation)     (None, 8, 8, 512)    0           bn5a_branch2a[0][0]              
__________________________________________________________________________________________________
res5a_branch2b (Conv2D)         (None, 8, 8, 512)    2359808     activation_286[0][0]             
__________________________________________________________________________________________________
bn5a_branch2b (BatchNormalizati (None, 8, 8, 512)    2048        res5a_branch2b[0][0]             
__________________________________________________________________________________________________
activation_287 (Activation)     (None, 8, 8, 512)    0           bn5a_branch2b[0][0]              
__________________________________________________________________________________________________
res5a_branch2c (Conv2D)         (None, 8, 8, 2048)   1050624     activation_287[0][0]             
__________________________________________________________________________________________________
res5a_branch1 (Conv2D)          (None, 8, 8, 2048)   2099200     activation_285[0][0]             
__________________________________________________________________________________________________
bn5a_branch2c (BatchNormalizati (None, 8, 8, 2048)   8192        res5a_branch2c[0][0]             
__________________________________________________________________________________________________
bn5a_branch1 (BatchNormalizatio (None, 8, 8, 2048)   8192        res5a_branch1[0][0]              
__________________________________________________________________________________________________
add_94 (Add)                    (None, 8, 8, 2048)   0           bn5a_branch2c[0][0]              
                                                                 bn5a_branch1[0][0]               
__________________________________________________________________________________________________
activation_288 (Activation)     (None, 8, 8, 2048)   0           add_94[0][0]                     
__________________________________________________________________________________________________
res5b_branch2a (Conv2D)         (None, 8, 8, 512)    1049088     activation_288[0][0]             
__________________________________________________________________________________________________
bn5b_branch2a (BatchNormalizati (None, 8, 8, 512)    2048        res5b_branch2a[0][0]             
__________________________________________________________________________________________________
activation_289 (Activation)     (None, 8, 8, 512)    0           bn5b_branch2a[0][0]              
__________________________________________________________________________________________________
res5b_branch2b (Conv2D)         (None, 8, 8, 512)    2359808     activation_289[0][0]             
__________________________________________________________________________________________________
bn5b_branch2b (BatchNormalizati (None, 8, 8, 512)    2048        res5b_branch2b[0][0]             
__________________________________________________________________________________________________
activation_290 (Activation)     (None, 8, 8, 512)    0           bn5b_branch2b[0][0]              
__________________________________________________________________________________________________
res5b_branch2c (Conv2D)         (None, 8, 8, 2048)   1050624     activation_290[0][0]             
__________________________________________________________________________________________________
bn5b_branch2c (BatchNormalizati (None, 8, 8, 2048)   8192        res5b_branch2c[0][0]             
__________________________________________________________________________________________________
add_95 (Add)                    (None, 8, 8, 2048)   0           bn5b_branch2c[0][0]              
                                                                 activation_288[0][0]             
__________________________________________________________________________________________________
activation_291 (Activation)     (None, 8, 8, 2048)   0           add_95[0][0]                     
__________________________________________________________________________________________________
res5c_branch2a (Conv2D)         (None, 8, 8, 512)    1049088     activation_291[0][0]             
__________________________________________________________________________________________________
bn5c_branch2a (BatchNormalizati (None, 8, 8, 512)    2048        res5c_branch2a[0][0]             
__________________________________________________________________________________________________
activation_292 (Activation)     (None, 8, 8, 512)    0           bn5c_branch2a[0][0]              
__________________________________________________________________________________________________
res5c_branch2b (Conv2D)         (None, 8, 8, 512)    2359808     activation_292[0][0]             
__________________________________________________________________________________________________
bn5c_branch2b (BatchNormalizati (None, 8, 8, 512)    2048        res5c_branch2b[0][0]             
__________________________________________________________________________________________________
activation_293 (Activation)     (None, 8, 8, 512)    0           bn5c_branch2b[0][0]              
__________________________________________________________________________________________________
res5c_branch2c (Conv2D)         (None, 8, 8, 2048)   1050624     activation_293[0][0]             
__________________________________________________________________________________________________
bn5c_branch2c (BatchNormalizati (None, 8, 8, 2048)   8192        res5c_branch2c[0][0]             
__________________________________________________________________________________________________
add_96 (Add)                    (None, 8, 8, 2048)   0           bn5c_branch2c[0][0]              
                                                                 activation_291[0][0]             
__________________________________________________________________________________________________
activation_294 (Activation)     (None, 8, 8, 2048)   0           add_96[0][0]                     
__________________________________________________________________________________________________
flatten_5 (Flatten)             (None, 131072)       0           activation_294[0][0]             
__________________________________________________________________________________________________
dense_12 (Dense)                (None, 512)          67109376    flatten_5[0][0]                  
__________________________________________________________________________________________________
dense_13 (Dense)                (None, 3)            1539        dense_12[0][0]                   
==================================================================================================
Total params: 90,698,627
Trainable params: 90,645,507
Non-trainable params: 53,120
__________________________________________________________________________________________________
&lt;/code&gt;&lt;/pre&gt;&lt;/div&gt;&lt;/div&gt;

&lt;div class=&quot;langua
…
&lt;span class=&quot;p&quot;&gt;()&lt;/span&gt;
&lt;/code&gt;&lt;/pre&gt;&lt;/div&gt;&lt;/div&gt;

&lt;div class=&quot;highlighter-rouge&quot;&gt;&lt;div class=&quot;highlight&quot;&gt;&lt;pre class=&quot;highlight&quot;&gt;&lt;code&gt;Model: &quot;inception_model&quot;
__________________________________________________________________________________________________
Layer (type)                    Output Shape         Param #     Connected to                     
==================================================================================================
input_12 (InputLayer)           (None, 256, 256, 3)  0                                            
__________________________________________________________________________________________________
conv2d_53 (Conv2D)              (None, 127, 127, 32) 864         input_12[0][0]                   
__________________________________________________________________________________________________
batch_normalization_1 (BatchNor (None, 127, 127, 32) 96          conv2d_53[0][0]                  
__________________________________________________________________________________________________
activation_295 (Activation)     (None, 127, 127, 32) 0           batch_normalization_1[0][0]      
__________________________________________________________________________________________________
conv2d_54 (Conv2D)              (None, 125, 125, 32) 9216        activation_295[0][0]             
__________________________________________________________________________________________________
batch_normalization_2 (BatchNor (None, 125, 125, 32) 96          conv2d_54[0][0]                  
__________________________________________________________________________________________________
activation_296 (Activation)     (None, 125, 125, 32) 0           batch_normalization_2[0][0]      
__________________________________________________________________________________________________
conv2d_55 (Conv2D)              (None, 125, 125, 64) 18432       activation_296[0][0]             
__________________________________________________________________________________________________
batch_normalization_3 (BatchNor (None, 125, 125, 64) 192         conv2d_55[0][0]                  
__________________________________________________________________________________________________
activation_297 (Activation)     (None, 125, 125, 64) 0           batch_normalization_3[0][0]      
__________________________________________________________________________________________________
max_pooling2d_18 (MaxPooling2D) (None, 62, 62, 64)   0           activation_297[0][0]             
__________________________________________________________________________________________________
conv2d_56 (Conv2D)              (None, 62, 62, 80)   5120        max_pooling2d_18[0][0]           
__________________________________________________________________________________________________
batch_normalization_4 (BatchNor (None, 62, 62, 80)   240         conv2d_56[0][0]                  
__________________________________________________________________________________________________
activation_298 (Activation)     (None, 62, 62, 80)   0           batch_normalization_4[0][0]      
__________________________________________________________________________________________________
conv2d_57 (Conv2D)              (None, 60, 60, 192)  138240      activation_298[0][0]             
__________________________________________________________________________________________________
batch_normalization_5 (BatchNor (None, 60, 60, 192)  576         conv2d_57[0][0]                  
__________________________________________________________________________________________________
activation_299 (Activation)     (None, 60, 60, 192)  0           batch_normalization_5[0][0]      
__________________________________________________________________________________________________
max_pooling2d_19 (MaxPooling2D) (None, 29, 29, 192)  0           activation_299[0][0]             
__________________________________________________________________________________________________
conv2d_61 (Conv2D)              (None, 29, 29, 64)   12288       max_pooling2d_19[0][0]           
__________________________________________________________________________________________________
batch_normalization_9 (BatchNor (None, 29, 29, 64)   192         conv2d_61[0][0]                  
__________________________________________________________________________________________________
activation_303 (Activation)     (None, 29, 29, 64)   0           batch_normalization_9[0][0]      
__________________________________________________________________________________________________
conv2d_59 (Conv2D)              (None, 29, 29, 48)   9216        max_pooling2d_19[0][0]           
__________________________________________________________________________________________________
conv2d_62 (Conv2D)              (None, 29, 29, 96)   55296       activation_303[0][0]             
__________________________________________________________________________________________________
batch_normalization_7 (BatchNor (None, 29, 29, 48)   144         conv2d_59[0][0]                  
__________________________________________________________________________________________________
batch_normalization_10 (BatchNo (None, 29, 29, 96)   288         conv2d_62[0][0]                  
__________________________________________________________________________________________________
activation_301 (Activation)     (None, 29, 29, 48)   0           batch_normalization_7[0][0]      
__________________________________________________________________________________________________
activation_304 (Activation)     (None, 29, 29, 96)   0           batch_normalization_10[0][0]     
__________________________________________________________________________________________________
average_pooling2d_1 (AveragePoo (None, 29, 29, 192)  0           max_pooling2d_19[0][0]           
__________________________________________________________________________________________________
conv2d_58 (Conv2D)              (None, 29, 29, 64)   12288       max_pooling2d_19[0][0]           
__________________________________________________________________________________________________
conv2d_60 (Conv2D)              (None, 29, 29, 64)   76800       activation_301[0][0]             
__________________________________________________________________________________________________
conv2d_63 (Conv2D)              (None, 29, 29, 96)   82944       activation_304[0][0]             
__________________________________________________________________________________________________
conv2d_64 (Conv2D)              (None, 29, 29, 32)   6144        average_pooling2d_1[0][0]        
__________________________________________________________________________________________________
batch_normalization_6 (BatchNor (None, 29, 29, 64)   192         conv2d_58[0][0]                  
__________________________________________________________________________________________________
batch_normalization_8 (BatchNor (None, 29, 29, 64)   192         conv2d_60[0][0]                  
__________________________________________________________________________________________________
batch_normalization_11 (BatchNo (None, 29, 29, 96)   288         conv2d_63[0][0]                  
__________________________________________________________________________________________________
batch_normalization_12 (BatchNo (None, 29, 29, 32)   96          conv2d_64[0][0]                  
__________________________________________________________________________________________________
activation_300 (Activation)     (None, 29, 29, 64)   0           batch_normalization_6[0][0]      
__________________________________________________________________________________________________
activation_302 (Activation)     (None, 29, 29, 64)   0           batch_normalization_8[0][0]      
__________________________________________________________________________________________________
activation_305 (Activation)     (None, 29, 29, 96)   0           batch_normalization_11[0][0]     
__________________________________________________________________________________________________
activation_306 (Activation)     (None, 29, 29, 32)   0           batch_normalization_12[0][0]     
__________________________________________________________________________________________________
mixed0 (Concatenate)            (None, 29, 29, 256)  0           activation_300[0][0]             
                                                                 activation_302[0][0]             
                                                                 activation_305[0][0]             
                                                                 activation_306[0][0]             
__________________________________________________________________________________________________
conv2d_68 (Conv2D)              (None, 29, 29, 64)   16384       mixed0[0][0]                     
__________________________________________________________________________________________________
batch_normalization_16 (BatchNo (None, 29, 29, 64)   192         conv2d_68[0][0]                  
__________________________________________________________________________________________________
activation_310 (Activation)     (None, 29, 29, 64)   0           batch_normalization_16[0][0]     
__________________________________________________________________________________________________
conv2d_66 (Conv2D)              (None, 29, 29, 48)   12288       mixed0[0][0]                     
__________________________________________________________________________________________________
conv2d_69 (Conv2D)              (None, 29, 29, 96)   55296       activation_310[0][0]             
__________________________________________________________________________________________________
batch_normalization_14 (BatchNo (None, 29, 29, 48)   144         conv2d_66[0][0]                  
__________________________________________________________________________________________________
batch_normalization_17 (BatchNo (None, 29, 29, 96)   288         conv2d_69[0][0]                  
__________________________________________________________________________________________________
activation_308 (Activation)     (None, 29, 29, 48)   0           batch_normalization_14[0][0]     
__________________________________________________________________________________________________
activation_311 (Activation)     (None, 29, 29, 96)   0           batch_normalization_17[0][0]     
__________________________________________________________________________________________________
average_pooling2d_2 (AveragePoo (None, 29, 29, 256)  0           mixed0[0][0]                     
__________________________________________________________________________________________________
conv2d_65 (Conv2D)              (None, 29, 29, 64)   16384       mixed0[0][0]                     
__________________________________________________________________________________________________
conv2d_67 (Conv2D)              (None, 29, 29, 64)   76800       activation_308[0][0]             
__________________________________________________________________________________________________
conv2d_70 (Conv2D)              (None, 29, 29, 96)   82944       activation_311[0][0]             
__________________________________________________________________________________________________
conv2d_71 (Conv2D)              (None, 29, 29, 64)   16384       average_pooling2d_2[0][0]        
__________________________________________________________________________________________________
batch_normalization_13 (BatchNo (None, 29, 29, 64)   192         conv2d_65[0][0]                  
__________________________________________________________________________________________________
batch_normalization_15 (BatchNo (None, 29, 29, 64)   192         conv2d_67[0][0]                  
__________________________________________________________________________________________________
batch_normalization_18 (BatchNo (None, 29, 29, 96)   288         conv2d_70[0][0]                  
__________________________________________________________________________________________________
batch_normalization_19 (BatchNo (None, 29, 29, 64)   192         conv2d_71[0][0]                  
__________________________________________________________________________________________________
activation_307 (Activation)     (None, 29, 29, 64)   0           batch_normalization_13[0][0]     
__________________________________________________________________________________________________
activation_309 (Activation)     (None, 29, 29, 64)   0           batch_normalization_15[0][0]     
__________________________________________________________________________________________________
activation_312 (Activation)     (None, 29, 29, 96)   0           batch_normalization_18[0][0]     
__________________________________________________________________________________________________
activation_313 (Activation)     (None, 29, 29, 64)   0           batch_normalization_19[0][0]     
__________________________________________________________________________________________________
mixed1 (Concatenate)            (None, 29, 29, 288)  0           activation_307[0][0]             
                                                                 activation_309[0][0]             
                                                                 activation_312[0][0]             
                                                                 activation_313[0][0]             
__________________________________________________________________________________________________
conv2d_75 (Conv2D)              (None, 29, 29, 64)   18432       mixed1[0][0]                     
__________________________________________________________________________________________________
batch_normalization_23 (BatchNo (None, 29, 29, 64)   192         conv2d_75[0][0]                  
__________________________________________________________________________________________________
activation_317 (Activation)     (None, 29, 29, 64)   0           batch_normalization_23[0][0]     
__________________________________________________________________________________________________
conv2d_73 (Conv2D)              (None, 29, 29, 48)   13824       mixed1[0][0]                     
__________________________________________________________________________________________________
conv2d_76 (Conv2D)              (None, 29, 29, 96)   55296       activation_317[0][0]             
__________________________________________________________________________________________________
batch_normalization_21 (BatchNo (None, 29, 29, 48)   144         conv2d_73[0][0]                  
__________________________________________________________________________________________________
batch_normalization_24 (BatchNo (None, 29, 29, 96)   288         conv2d_76[0][0]                  
__________________________________________________________________________________________________
activation_315 (Activation)     (None, 29, 29, 48)   0           batch_normalization_21[0][0]     
__________________________________________________________________________________________________
activation_318 (Activation)     (None, 29, 29, 96)   0           batch_normalization_24[0][0]     
__________________________________________________________________________________________________
average_pooling2d_3 (AveragePoo (None, 29, 29, 288)  0           mixed1[0][0]                     
__________________________________________________________________________________________________
conv2d_72 (Conv2D)              (None, 29, 29, 64)   18432       mixed1[0][0]                     
__________________________________________________________________________________________________
conv2d_74 (Conv2D)              (None, 29, 29, 64)   76800       activation_315[0][0]             
__________________________________________________________________________________________________
conv2d_77 (Conv2D)              (None, 29, 29, 96)   82944       activation_318[0][0]             
__________________________________________________________________________________________________
conv2d_78 (Conv2D)              (None, 29, 29, 64)   18432       average_pooling2d_3[0][0]        
__________________________________________________________________________________________________
batch_normalization_20 (BatchNo (None, 29, 29, 64)   192         conv2d_72[0][0]                  
__________________________________________________________________________________________________
batch_normalization_22 (BatchNo (None, 29, 29, 64)   192         conv2d_74[0][0]                  
__________________________________________________________________________________________________
batch_normalization_25 (BatchNo (None, 29, 29, 96)   288         conv2d_77[0][0]                  
__________________________________________________________________________________________________
batch_normalization_26 (BatchNo (None, 29, 29, 64)   192         conv2d_78[0][0]                  
__________________________________________________________________________________________________
activation_314 (Activation)     (None, 29, 29, 64)   0           batch_normalization_20[0][0]     
__________________________________________________________________________________________________
activation_316 (Activation)     (None, 29, 29, 64)   0           batch_normalization_22[0][0]     
__________________________________________________________________________________________________
activation_319 (Activation)     (None, 29, 29, 96)   0           batch_normalization_25[0][0]     
__________________________________________________________________________________________________
activation_320 (Activation)     (None, 29, 29, 64)   0           batch_normalization_26[0][0]     
__________________________________________________________________________________________________
mixed2 (Concatenate)            (None, 29, 29, 288)  0           activation_314[0][0]             
                                                                 activation_316[0][0]             
                                                                 activation_319[0][0]             
                                                                 activation_320[0][0]             
__________________________________________________________________________________________________
conv2d_80 (Conv2D)              (None, 29, 29, 64)   18432       mixed2[0][0]                     
__________________________________________________________________________________________________
batch_normalization_28 (BatchNo (None, 29, 29, 64)   192         conv2d_80[0][0]                  
__________________________________________________________________________________________________
activation_322 (Activation)     (None, 29, 29, 64)   0           batch_normalization_28[0][0]     
__________________________________________________________________________________________________
conv2d_81 (Conv2D)              (None, 29, 29, 96)   55296       activation_322[0][0]             
__________________________________________________________________________________________________
batch_normalization_29 (BatchNo (None, 29, 29, 96)   288         conv2d_81[0][0]                  
__________________________________________________________________________________________________
activation_323 (Activation)     (None, 29, 29, 96)   0           batch_normalization_29[0][0]     
__________________________________________________________________________________________________
conv2d_79 (Conv2D)              (None, 14, 14, 384)  995328      mixed2[0][0]                     
__________________________________________________________________________________________________
conv2d_82 (Conv2D)              (None, 14, 14, 96)   82944       activation_323[0][0]             
__________________________________________________________________________________________________
batch_normalization_27 (BatchNo (None, 14, 14, 384)  1152        conv2d_79[0][0]                  
__________________________________________________________________________________________________
batch_normalization_30 (BatchNo (None, 14, 14, 96)   288         conv2d_82[0][0]                  
__________________________________________________________________________________________________
activation_321 (Activation)     (None, 14, 14, 384)  0           batch_normalization_27[0][0]     
__________________________________________________________________________________________________
activation_324 (Activation)     (None, 14, 14, 96)   0           batch_normalization_30[0][0]     
__________________________________________________________________________________________________
max_pooling2d_20 (MaxPooling2D) (None, 14, 14, 288)  0           mixed2[0][0]                     
__________________________________________________________________________________________________
mixed3 (Concatenate)            (None, 14, 14, 768)  0           activation_321[0][0]             
                                                                 activation_324[0][0]             
                                                                 max_pooling2d_20[0][0]           
__________________________________________________________________________________________________
conv2d_87 (Conv2D)              (None, 14, 14, 128)  98304       mixed3[0][0]                     
__________________________________________________________________________________________________
batch_normalization_35 (BatchNo (None, 14, 14, 128)  384         conv2d_87[0][0]                  
__________________________________________________________________________________________________
activation_329 (Activation)     (None, 14, 14, 128)  0           batch_normalization_35[0][0]     
__________________________________________________________________________________________________
conv2d_88 (Conv2D)              (None, 14, 14, 128)  114688      activation_329[0][0]             
__________________________________________________________________________________________________
batch_normalization_36 (BatchNo (None, 14, 14, 128)  384         conv2d_88[0][0]                  
__________________________________________________________________________________________________
activation_330 (Activation)     (None, 14, 14, 128)  0           batch_normalization_36[0][0]     
__________________________________________________________________________________________________
conv2d_84 (Conv2D)              (None, 14, 14, 128)  98304       mixed3[0][0]                     
__________________________________________________________________________________________________
conv2d_89 (Conv2D)              (None, 14, 14, 128)  114688      activation_330[0][0]             
__________________________________________________________________________________________________
batch_normalization_32 (BatchNo (None, 14, 14, 128)  384         conv2d_84[0][0]                  
__________________________________________________________________________________________________
batch_normalization_37 (BatchNo (None, 14, 14, 128)  384         conv2d_89[0][0]                  
__________________________________________________________________________________________________
activation_326 (Activation)     (None, 14, 14, 128)  0           batch_normalization_32[0][0]     
__________________________________________________________________________________________________
activation_331 (Activation)     (None, 14, 14, 128)  0           batch_normalization_37[0][0]     
__________________________________________________________________________________________________
conv2d_85 (Conv2D)              (None, 14, 14, 128)  114688      activation_326[0][0]             
__________________________________________________________________________________________________
conv2d_90 (Conv2D)              (None, 14, 14, 128)  114688      activation_331[0][0]             
__________________________________________________________________________________________________
batch_normalization_33 (BatchNo (None, 14, 14, 128)  384         conv2d_85[0][0]                  
__________________________________________________________________________________________________
batch_normalization_38 (BatchNo (None, 14, 14, 128)  384         conv2d_90[0][0]                  
__________________________________________________________________________________________________
activation_327 (Activation)     (None, 14, 14, 128)  0           batch_normalization_33[0][0]     
__________________________________________________________________________________________________
activation_332 (Activation)     (None, 14, 14, 128)  0           batch_normalization_38[0][0]     
__________________________________________________________________________________________________
average_pooling2d_4 (AveragePoo (None, 14, 14, 768)  0           mixed3[0][0]                     
__________________________________________________________________________________________________
conv2d_83 (Conv2D)              (None, 14, 14, 192)  147456      mixed3[0][0]                     
__________________________________________________________________________________________________
conv2d_86 (Conv2D)              (None, 14, 14, 192)  172032      activation_327[0][0]             
__________________________________________________________________________________________________
conv2d_91 (Conv2D)              (None, 14, 14, 192)  172032      activation_332[0][0]             
__________________________________________________________________________________________________
conv2d_92 (Conv2D)              (None, 14, 14, 192)  147456      average_pooling2d_4[0][0]        
__________________________________________________________________________________________________
batch_normalization_31 (BatchNo (None, 14, 14, 192)  576         conv2d_83[0][0]                  
__________________________________________________________________________________________________
batch_normalization_34 (BatchNo (None, 14, 14, 192)  576         conv2d_86[0][0]                  
__________________________________________________________________________________________________
batch_normalization_39 (BatchNo (None, 14, 14, 192)  576         conv2d_91[0][0]                  
__________________________________________________________________________________________________
batch_normalization_40 (BatchNo (None, 14, 14, 192)  576         conv2d_92[0][0]                  
__________________________________________________________________________________________________
activation_325 (Activation)     (None, 14, 14, 192)  0           batch_normalization_31[0][0]     
__________________________________________________________________________________________________
activation_328 (Activation)     (None, 14, 14, 192)  0           batch_normalization_34[0][0]     
__________________________________________________________________________________________________
activation_333 (Activation)     (None, 14, 14, 192)  0           batch_normalization_39[0][0]     
__________________________________________________________________________________________________
activation_334 (Activation)     (None, 14, 14, 192)  0           batch_normalization_40[0][0]     
__________________________________________________________________________________________________
mixed4 (Concatenate)            (None, 14, 14, 768)  0           activation_325[0][0]             
                                                                 activation_328[0][0]             
                                                                 activation_333[0][0]             
                                                                 activation_334[0][0]             
__________________________________________________________________________________________________
conv2d_97 (Conv2D)              (None, 14, 14, 160)  122880      mixed4[0][0]                     
__________________________________________________________________________________________________
batch_normalization_45 (BatchNo (None, 14, 14, 160)  480         conv2d_97[0][0]                  
__________________________________________________________________________________________________
activation_339 (Activation)     (None, 14, 14, 160)  0           batch_normalization_45[0][0]     
__________________________________________________________________________________________________
conv2d_98 (Conv2D)              (None, 14, 14, 160)  179200      activation_339[0][0]             
__________________________________________________________________________________________________
batch_normalization_46 (BatchNo (None, 14, 14, 160)  480         conv2d_98[0][0]                  
__________________________________________________________________________________________________
activation_340 (Activation)     (None, 14, 14, 160)  0           batch_normalization_46[0][0]     
__________________________________________________________________________________________________
conv2d_94 (Conv2D)              (None, 14, 14, 160)  122880      mixed4[0][0]                     
__________________________________________________________________________________________________
conv2d_99 (Conv2D)              (None, 14, 14, 160)  179200      activation_340[0][0]             
__________________________________________________________________________________________________
batch_normalization_42 (BatchNo (None, 14, 14, 160)  480         conv2d_94[0][0]                  
__________________________________________________________________________________________________
batch_normalization_47 (BatchNo (None, 14, 14, 160)  480         conv2d_99[0][0]                  
__________________________________________________________________________________________________
activation_336 (Activation)     (None, 14, 14, 160)  0           batch_normalization_42[0][0]     
__________________________________________________________________________________________________
activation_341 (Activation)     (None, 14, 14, 160)  0           batch_normalization_47[0][0]     
__________________________________________________________________________________________________
conv2d_95 (Conv2D)              (None, 14, 14, 160)  179200      activation_336[0][0]             
__________________________________________________________________________________________________
conv2d_100 (Conv2D)             (None, 14, 14, 160)  179200      activation_341[0][0]             
__________________________________________________________________________________________________
batch_normalization_43 (BatchNo (None, 14, 14, 160)  480         conv2d_95[0][0]                  
__________________________________________________________________________________________________
batch_normalization_48 (BatchNo (None, 14, 14, 160)  480         conv2d_100[0][0]                 
__________________________________________________________________________________________________
activation_337 (Activation)     (None, 14, 14, 160)  0           batch_normalization_43[0][0]     
__________________________________________________________________________________________________
activation_342 (Activation)     (None, 14, 14, 160)  0           batch_normalization_48[0][0]     
__________________________________________________________________________________________________
average_pooling2d_5 (AveragePoo (None, 14, 14, 768)  0           mixed4[0][0]                     
__________________________________________________________________________________________________
conv2d_93 (Conv2D)              (None, 14, 14, 192)  147456      mixed4[0][0]                     
__________________________________________________________________________________________________
conv2d_96 (Conv2D)              (None, 14, 14, 192)  215040      activation_337[0][0]             
__________________________________________________________________________________________________
conv2d_101 (Conv2D)             (None, 14, 14, 192)  215040      activation_342[0][0]             
__________________________________________________________________________________________________
conv2d_102 (Conv2D)             (None, 14, 14, 192)  147456      average_pooling2d_5[0][0]        
__________________________________________________________________________________________________
batch_normalization_41 (BatchNo (None, 14, 14, 192)  576         conv2d_93[0][0]                  
__________________________________________________________________________________________________
batch_normalization_44 (BatchNo (None, 14, 14, 192)  576         conv2d_96[0][0]                  
__________________________________________________________________________________________________
batch_normalization_49 (BatchNo (None, 14, 14, 192)  576         conv2d_101[0][0]                 
__________________________________________________________________________________________________
batch_normalization_50 (BatchNo (None, 14, 14, 192)  576         conv2d_102[0][0]                 
__________________________________________________________________________________________________
activation_335 (Activation)     (None, 14, 14, 192)  0           batch_normalization_41[0][0]     
__________________________________________________________________________________________________
activation_338 (Activation)     (None, 14, 14, 192)  0           batch_normalization_44[0][0]     
__________________________________________________________________________________________________
activation_343 (Activation)     (None, 14, 14, 192)  0           batch_normalization_49[0][0]     
__________________________________________________________________________________________________
activation_344 (Activation)     (None, 14, 14, 192)  0           batch_normalization_50[0][0]     
__________________________________________________________________________________________________
mixed5 (Concatenate)            (None, 14, 14, 768)  0           activation_335[0][0]             
                                                                 activation_338[0][0]             
                                                                 activation_343[0][0]             
                                                                 activation_344[0][0]             
__________________________________________________________________________________________________
conv2d_107 (Conv2D)             (None, 14, 14, 160)  122880      mixed5[0][0]                     
__________________________________________________________________________________________________
batch_normalization_55 (BatchNo (None, 14, 14, 160)  480         conv2d_107[0][0]                 
__________________________________________________________________________________________________
activation_349 (Activation)     (None, 14, 14, 160)  0           batch_normalization_55[0][0]     
__________________________________________________________________________________________________
conv2d_108 (Conv2D)             (None, 14, 14, 160)  179200      activation_349[0][0]             
__________________________________________________________________________________________________
batch_normalization_56 (BatchNo (None, 14, 14, 160)  480         conv2d_108[0][0]                 
__________________________________________________________________________________________________
activation_350 (Activation)     (None, 14, 14, 160)  0           batch_normalization_56[0][0]     
__________________________________________________________________________________________________
conv2d_104 (Conv2D)             (None, 14, 14, 160)  122880      mixed5[0][0]                     
__________________________________________________________________________________________________
conv2d_109 (Conv2D)             (None, 14, 14, 160)  179200      activation_350[0][0]             
__________________________________________________________________________________________________
batch_normalization_52 (BatchNo (None, 14, 14, 160)  480         conv2d_104[0][0]                 
__________________________________________________________________________________________________
batch_normalization_57 (BatchNo (None, 14, 14, 160)  480         conv2d_109[0][0]                 
__________________________________________________________________________________________________
activation_346 (Activation)     (None, 14, 14, 160)  0           batch_normalization_52[0][0]     
__________________________________________________________________________________________________
activation_351 (Activation)     (None, 14, 14, 160)  0           batch_normalization_57[0][0]     
__________________________________________________________________________________________________
conv2d_105 (Conv2D)             (None, 14, 14, 160)  179200      activation_346[0][0]             
__________________________________________________________________________________________________
conv2d_110 (Conv2D)             (None, 14, 14, 160)  179200      activation_351[0][0]             
__________________________________________________________________________________________________
batch_normalization_53 (BatchNo (None, 14, 14, 160)  480         conv2d_105[0][0]                 
__________________________________________________________________________________________________
batch_normalization_58 (BatchNo (None, 14, 14, 160)  480         conv2d_110[0][0]                 
__________________________________________________________________________________________________
activation_347 (Activation)     (None, 14, 14, 160)  0           batch_normalization_53[0][0]     
__________________________________________________________________________________________________
activation_352 (Activation)     (None, 14, 14, 160)  0           batch_normalization_58[0][0]     
__________________________________________________________________________________________________
average_pooling2d_6 (AveragePoo (None, 14, 14, 768)  0           mixed5[0][0]                     
__________________________________________________________________________________________________
conv2d_103 (Conv2D)             (None, 14, 14, 192)  147456      mixed5[0][0]                     
__________________________________________________________________________________________________
conv2d_106 (Conv2D)             (None, 14, 14, 192)  215040      activation_347[0][0]             
__________________________________________________________________________________________________
conv2d_111 (Conv2D)             (None, 14, 14, 192)  215040      activation_352[0][0]             
__________________________________________________________________________________________________
conv2d_112 (Conv2D)             (None, 14, 14, 192)  147456      average_pooling2d_6[0][0]        
__________________________________________________________________________________________________
batch_normalization_51 (BatchNo (None, 14, 14, 192)  576         conv2d_103[0][0]                 
__________________________________________________________________________________________________
batch_normalization_54 (BatchNo (None, 14, 14, 192)  576         conv2d_106[0][0]                 
__________________________________________________________________________________________________
batch_normalization_59 (BatchNo (None, 14, 14, 192)  576         conv2d_111[0][0]                 
__________________________________________________________________________________________________
batch_normalization_60 (BatchNo (None, 14, 14, 192)  576         conv2d_112[0][0]                 
__________________________________________________________________________________________________
activation_345 (Activation)     (None, 14, 14, 192)  0           batch_normalization_51[0][0]     
__________________________________________________________________________________________________
activation_348 (Activation)     (None, 14, 14, 192)  0           batch_normalization_54[0][0]     
__________________________________________________________________________________________________
activation_353 (Activation)     (None, 14, 14, 192)  0           batch_normalization_59[0][0]     
__________________________________________________________________________________________________
activation_354 (Activation)     (None, 14, 14, 192)  0           batch_normalization_60[0][0]     
__________________________________________________________________________________________________
mixed6 (Concatenate)            (None, 14, 14, 768)  0           activation_345[0][0]             
                                                                 activation_348[0][0]             
                                                                 activation_353[0][0]             
                                                                 activation_354[0][0]             
__________________________________________________________________________________________________
conv2d_117 (Conv2D)             (None, 14, 14, 192)  147456      mixed6[0][0]                     
__________________________________________________________________________________________________
batch_normalization_65 (BatchNo (None, 14, 14, 192)  576         conv2d_117[0][0]                 
__________________________________________________________________________________________________
activation_359 (Activation)     (None, 14, 14, 192)  0           batch_normalization_65[0][0]     
__________________________________________________________________________________________________
conv2d_118 (Conv2D)             (None, 14, 14, 192)  258048      activation_359[0][0]             
__________________________________________________________________________________________________
batch_normalization_66 (BatchNo (None, 14, 14, 192)  576         conv2d_118[0][0]                 
__________________________________________________________________________________________________
activation_360 (Activation)     (None, 14, 14, 192)  0           batch_normalization_66[0][0]     
__________________________________________________________________________________________________
conv2d_114 (Conv2D)             (None, 14, 14, 192)  147456      mixed6[0][0]                     
__________________________________________________________________________________________________
conv2d_119 (Conv2D)             (None, 14, 14, 192)  258048      activation_360[0][0]             
__________________________________________________________________________________________________
batch_normalization_62 (BatchNo (None, 14, 14, 192)  576         conv2d_114[0][0]                 
__________________________________________________________________________________________________
batch_normalization_67 (BatchNo (None, 14, 14, 192)  576         conv2d_119[0][0]                 
__________________________________________________________________________________________________
activation_356 (Activation)     (None, 14, 14, 192)  0           batch_normalization_62[0][0]     
__________________________________________________________________________________________________
activation_361 (Activation)     (None, 14, 14, 192)  0           batch_normalization_67[0][0]     
__________________________________________________________________________________________________
conv2d_115 (Conv2D)             (None, 14, 14, 192)  258048      activation_356[0][0]             
__________________________________________________________________________________________________
conv2d_120 (Conv2D)             (None, 14, 14, 192)  258048      activation_361[0][0]             
__________________________________________________________________________________________________
batch_normalization_63 (BatchNo (None, 14, 14, 192)  576         conv2d_115[0][0]                 
__________________________________________________________________________________________________
batch_normalization_68 (BatchNo (None, 14, 14, 192)  576         conv2d_120[0][0]                 
__________________________________________________________________________________________________
activation_357 (Activation)     (None, 14, 14, 192)  0           batch_normalization_63[0][0]     
__________________________________________________________________________________________________
activation_362 (Activation)     (None, 14, 14, 192)  0           batch_normalization_68[0][0]     
__________________________________________________________________________________________________
average_pooling2d_7 (AveragePoo (None, 14, 14, 768)  0           mixed6[0][0]                     
__________________________________________________________________________________________________
conv2d_113 (Conv2D)             (None, 14, 14, 192)  147456      mixed6[0][0]                     
__________________________________________________________________________________________________
conv2d_116 (Conv2D)             (None, 14, 14, 192)  258048      activation_357[0][0]             
__________________________________________________________________________________________________
conv2d_121 (Conv2D)             (None, 14, 14, 192)  258048      activation_362[0][0]             
__________________________________________________________________________________________________
conv2d_122 (Conv2D)             (None, 14, 14, 192)  147456      average_pooling2d_7[0][0]        
__________________________________________________________________________________________________
batch_normalization_61 (BatchNo (None, 14, 14, 192)  576         conv2d_113[0][0]                 
__________________________________________________________________________________________________
batch_normalization_64 (BatchNo (None, 14, 14, 192)  576         conv2d_116[0][0]                 
__________________________________________________________________________________________________
batch_normalization_69 (BatchNo (None, 14, 14, 192)  576         conv2d_121[0][0]                 
__________________________________________________________________________________________________
batch_normalization_70 (BatchNo (None, 14, 14, 192)  576         conv2d_122[0][0]                 
__________________________________________________________________________________________________
activation_355 (Activation)     (None, 14, 14, 192)  0           batch_normalization_61[0][0]     
__________________________________________________________________________________________________
activation_358 (Activation)     (None, 14, 14, 192)  0           batch_normalization_64[0][0]     
__________________________________________________________________________________________________
activation_363 (Activation)     (None, 14, 14, 192)  0           batch_normalization_69[0][0]     
__________________________________________________________________________________________________
activation_364 (Activation)     (None, 14, 14, 192)  0           batch_normalization_70[0][0]     
__________________________________________________________________________________________________
mixed7 (Concatenate)            (None, 14, 14, 768)  0           activation_355[0][0]             
                                                                 activation_358[0][0]             
                                                                 activation_363[0][0]             
                                                                 activation_364[0][0]             
__________________________________________________________________________________________________
conv2d_125 (Conv2D)             (None, 14, 14, 192)  147456      mixed7[0][0]                     
__________________________________________________________________________________________________
batch_normalization_73 (BatchNo (None, 14, 14, 192)  576         conv2d_125[0][0]                 
__________________________________________________________________________________________________
activation_367 (Activation)     (None, 14, 14, 192)  0           batch_normalization_73[0][0]     
__________________________________________________________________________________________________
conv2d_126 (Conv2D)             (None, 14, 14, 192)  258048      activation_367[0][0]             
__________________________________________________________________________________________________
batch_normalization_74 (BatchNo (None, 14, 14, 192)  576         conv2d_126[0][0]                 
__________________________________________________________________________________________________
activation_368 (Activation)     (None, 14, 14, 192)  0           batch_normalization_74[0][0]     
__________________________________________________________________________________________________
conv2d_123 (Conv2D)             (None, 14, 14, 192)  147456      mixed7[0][0]                     
__________________________________________________________________________________________________
conv2d_127 (Conv2D)             (None, 14, 14, 192)  258048      activation_368[0][0]             
__________________________________________________________________________________________________
batch_normalization_71 (BatchNo (None, 14, 14, 192)  576         conv2d_123[0][0]                 
__________________________________________________________________________________________________
batch_normalization_75 (BatchNo (None, 14, 14, 192)  576         conv2d_127[0][0]                 
__________________________________________________________________________________________________
activation_365 (Activation)     (None, 14, 14, 192)  0           batch_normalization_71[0][0]     
__________________________________________________________________________________________________
activation_369 (Activation)     (None, 14, 14, 192)  0           batch_normalization_75[0][0]     
__________________________________________________________________________________________________
conv2d_124 (Conv2D)             (None, 6, 6, 320)    552960      activation_365[0][0]             
__________________________________________________________________________________________________
conv2d_128 (Conv2D)             (None, 6, 6, 192)    331776      activation_369[0][0]             
__________________________________________________________________________________________________
batch_normalization_72 (BatchNo (None, 6, 6, 320)    960         conv2d_124[0][0]                 
__________________________________________________________________________________________________
batch_normalization_76 (BatchNo (None, 6, 6, 192)    576         conv2d_128[0][0]                 
__________________________________________________________________________________________________
activation_366 (Activation)     (None, 6, 6, 320)    0           batch_normalization_72[0][0]     
__________________________________________________________________________________________________
activation_370 (Activation)     (None, 6, 6, 192)    0           batch_normalization_76[0][0]     
__________________________________________________________________________________________________
max_pooling2d_21 (MaxPooling2D) (None, 6, 6, 768)    0           mixed7[0][0]                     
__________________________________________________________________________________________________
mixed8 (Concatenate)            (None, 6, 6, 1280)   0           activation_366[0][0]             
                                                                 activation_370[0][0]             
                                                                 max_pooling2d_21[0][0]           
__________________________________________________________________________________________________
conv2d_133 (Conv2D)             (None, 6, 6, 448)    573440      mixed8[0][0]                     
__________________________________________________________________________________________________
batch_normalization_81 (BatchNo (None, 6, 6, 448)    1344        conv2d_133[0][0]                 
__________________________________________________________________________________________________
activation_375 (Activation)     (None, 6, 6, 448)    0           batch_normalization_81[0][0]     
__________________________________________________________________________________________________
conv2d_130 (Conv2D)             (None, 6, 6, 384)    491520      mixed8[0][0]                     
__________________________________________________________________________________________________
conv2d_134 (Conv2D)             (None, 6, 6, 384)    1548288     activation_375[0][0]             
__________________________________________________________________________________________________
batch_normalization_78 (BatchNo (None, 6, 6, 384)    1152        conv2d_130[0][0]                 
__________________________________________________________________________________________________
batch_normalization_82 (BatchNo (None, 6, 6, 384)    1152        conv2d_134[0][0]                 
__________________________________________________________________________________________________
activation_372 (Activation)     (None, 6, 6, 384)    0           batch_normalization_78[0][0]     
__________________________________________________________________________________________________
activation_376 (Activation)     (None, 6, 6, 384)    0           batch_normalization_82[0][0]     
__________________________________________________________________________________________________
conv2d_131 (Conv2D)             (None, 6, 6, 384)    442368      activation_372[0][0]             
__________________________________________________________________________________________________
conv2d_132 (Conv2D)             (None, 6, 6, 384)    442368      activation_372[0][0]             
__________________________________________________________________________________________________
conv2d_135 (Conv2D)             (None, 6, 6, 384)    442368      activation_376[0][0]             
__________________________________________________________________________________________________
conv2d_136 (Conv2D)             (None, 6, 6, 384)    442368      activation_376[0][0]             
__________________________________________________________________________________________________
average_pooling2d_8 (AveragePoo (None, 6, 6, 1280)   0           mixed8[0][0]                     
__________________________________________________________________________________________________
conv2d_129 (Conv2D)             (None, 6, 6, 320)    409600      mixed8[0][0]                     
__________________________________________________________________________________________________
batch_normalization_79 (BatchNo (None, 6, 6, 384)    1152        conv2d_131[0][0]                 
__________________________________________________________________________________________________
batch_normalization_80 (BatchNo (None, 6, 6, 384)    1152        conv2d_132[0][0]                 
__________________________________________________________________________________________________
batch_normalization_83 (BatchNo (None, 6, 6, 384)    1152        conv2d_135[0][0]                 
__________________________________________________________________________________________________
batch_normalization_84 (BatchNo (None, 6, 6, 384)    1152        conv2d_136[0][0]                 
__________________________________________________________________________________________________
conv2d_137 (Conv2D)             (None, 6, 6, 192)    245760      average_pooling2d_8[0][0]        
__________________________________________________________________________________________________
batch_normalization_77 (BatchNo (None, 6, 6, 320)    960         conv2d_129[0][0]                 
__________________________________________________________________________________________________
activation_373 (Activation)     (None, 6, 6, 384)    0           batch_normalization_79[0][0]     
__________________________________________________________________________________________________
activation_374 (Activation)     (None, 6, 6, 384)    0           batch_normalization_80[0][0]     
__________________________________________________________________________________________________
activation_377 (Activation)     (None, 6, 6, 384)    0           batch_normalization_83[0][0]     
__________________________________________________________________________________________________
activation_378 (Activation)     (None, 6, 6, 384)    0           batch_normalization_84[0][0]     
__________________________________________________________________________________________________
batch_normalization_85 (BatchNo (None, 6, 6, 192)    576         conv2d_137[0][0]                 
__________________________________________________________________________________________________
activation_371 (Activation)     (None, 6, 6, 320)    0           batch_normalization_77[0][0]     
__________________________________________________________________________________________________
mixed9_0 (Concatenate)          (None, 6, 6, 768)    0           activation_373[0][0]             
                                                                 activation_374[0][0]             
__________________________________________________________________________________________________
concatenate_9 (Concatenate)     (None, 6, 6, 768)    0           activation_377[0][0]             
                                                                 activation_378[0][0]             
__________________________________________________________________________________________________
activation_379 (Activation)     (None, 6, 6, 192)    0           batch_normalization_85[0][0]     
__________________________________________________________________________________________________
mixed9 (Concatenate)            (None, 6, 6, 2048)   0           activation_371[0][0]             
                                                                 mixed9_0[0][0]                   
                                                                 concatenate_9[0][0]              
                                                                 activation_379[0][0]             
__________________________________________________________________________________________________
conv2d_142 (Conv2D)             (None, 6, 6, 448)    917504      mixed9[0][0]                     
__________________________________________________________________________________________________
batch_normalization_90 (BatchNo (None, 6, 6, 448)    1344        conv2d_142[0][0]                 
__________________________________________________________________________________________________
activation_384 (Activation)     (None, 6, 6, 448)    0           batch_normalization_90[0][0]     
__________________________________________________________________________________________________
conv2d_139 (Conv2D)             (None, 6, 6, 384)    786432      mixed9[0][0]                     
__________________________________________________________________________________________________
conv2d_143 (Conv2D)             (None, 6, 6, 384)    1548288     activation_384[0][0]             
__________________________________________________________________________________________________
batch_normalization_87 (BatchNo (None, 6, 6, 384)    1152        conv2d_139[0][0]                 
__________________________________________________________________________________________________
batch_normalization_91 (BatchNo (None, 6, 6, 384)    1152        conv2d_143[0][0]                 
__________________________________________________________________________________________________
activation_381 (Activation)     (None, 6, 6, 384)    0           batch_normalization_87[0][0]     
__________________________________________________________________________________________________
activation_385 (Activation)     (None, 6, 6, 384)    0           batch_normalization_91[0][0]     
__________________________________________________________________________________________________
conv2d_140 (Conv2D)             (None, 6, 6, 384)    442368      activation_381[0][0]             
__________________________________________________________________________________________________
conv2d_141 (Conv2D)             (None, 6, 6, 384)    442368      activation_381[0][0]             
__________________________________________________________________________________________________
conv2d_144 (Conv2D)             (None, 6, 6, 384)    442368      activation_385[0][0]             
__________________________________________________________________________________________________
conv2d_145 (Conv2D)             (None, 6, 6, 384)    442368      activation_385[0][0]             
__________________________________________________________________________________________________
average_pooling2d_9 (AveragePoo (None, 6, 6, 2048)   0           mixed9[0][0]                     
__________________________________________________________________________________________________
conv2d_138 (Conv2D)             (None, 6, 6, 320)    655360      mixed9[0][0]                     
__________________________________________________________________________________________________
batch_normalization_88 (BatchNo (None, 6, 6, 384)    1152        conv2d_140[0][0]                 
__________________________________________________________________________________________________
batch_normalization_89 (BatchNo (None, 6, 6, 384)    1152        conv2d_141[0][0]                 
__________________________________________________________________________________________________
batch_normalization_92 (BatchNo (None, 6, 6, 384)    1152        conv2d_144[0][0]                 
__________________________________________________________________________________________________
batch_normalization_93 (BatchNo (None, 6, 6, 384)    1152        conv2d_145[0][0]                 
__________________________________________________________________________________________________
conv2d_146 (Conv2D)             (None, 6, 6, 192)    393216      average_pooling2d_9[0][0]        
__________________________________________________________________________________________________
batch_normalization_86 (BatchNo (None, 6, 6, 320)    960         conv2d_138[0][0]                 
__________________________________________________________________________________________________
activation_382 (Activation)     (None, 6, 6, 384)    0           batch_normalization_88[0][0]     
__________________________________________________________________________________________________
activation_383 (Activation)     (None, 6, 6, 384)    0           batch_normalization_89[0][0]     
__________________________________________________________________________________________________
activation_386 (Activation)     (None, 6, 6, 384)    0           batch_normalization_92[0][0]     
__________________________________________________________________________________________________
activation_387 (Activation)     (None, 6, 6, 384)    0           batch_normalization_93[0][0]     
__________________________________________________________________________________________________
batch_normalization_94 (BatchNo (None, 6, 6, 192)    576         conv2d_146[0][0]                 
__________________________________________________________________________________________________
activation_380 (Activation)     (None, 6, 6, 320)    0           batch_normalization_86[0][0]     
__________________________________________________________________________________________________
mixed9_1 (Concatenate)          (None, 6, 6, 768)    0           activation_382[0][0]             
                                                                 activation_383[0][0]             
__________________________________________________________________________________________________
concatenate_10 (Concatenate)    (None, 6, 6, 768)    0           activation_386[0][0]             
                                                                 activation_387[0][0]             
__________________________________________________________________________________________________
activation_388 (Activation)     (None, 6, 6, 192)    0           batch_normalization_94[0][0]     
__________________________________________________________________________________________________
mixed10 (Concatenate)           (None, 6, 6, 2048)   0           activation_380[0][0]             
                                                                 mixed9_1[0][0]                   
                                                                 concatenate_10[0][0]             
                                                                 activation_388[0][0]             
__________________________________________________________________________________________________
flatten_8 (Flatten)             (None, 73728)        0           mixed10[0][0]                    
__________________________________________________________________________________________________
dense_18 (Dense)                (None, 512)          37749248    flatten_8[0][0]                  
__________________________________________________________________________________________________
dense_19 (Dense)                (None, 3)            1539        dense_18[0][0]                   
==================================================================================================
Total params: 59,553,571
Trainable params: 59,519,139
Non-trainable params: 34,432
__________________________________________________________________________________________________
&lt;/code&gt;&lt;/pre&gt;&lt;/div&gt;&lt;/div&gt;

&lt;div class=&quot;langua
…
&lt;div class=&quot;language-python highlighter-rouge&quot;&gt;&lt;div class=&quot;highlight&quot;&gt;&lt;pre class=&quot;highlight&quot;&gt;&lt;code&gt;&lt;span class=&quot;n&quot;&gt;model&lt;/span&gt;&lt;span class=&quot;p&quot;&gt;.&lt;/span&gt;&lt;span class=&quot;n&quot;&gt;summary&lt;/span&gt;&lt;span class=&quot;p&quot;&gt;()&lt;/span&gt;
&lt;/code&gt;&lt;/pre&gt;&lt;/div&gt;&lt;/div&gt;

&lt;div class=&quot;highlighter-rouge&quot;&gt;&lt;div class=&quot;highlight&quot;&gt;&lt;pre class=&quot;highlight&quot;&gt;&lt;code&gt;Model: &quot;fcnn_model&quot;
_________________________________________________________________
Layer (type)                 Output Shape              Param #   
=================================================================
flatten_12 (Flatten)         (None, 196608)            0         
_________________________________________________________________
dense_34 (Dense)             (None, 512)               100663808 
_________________________________________________________________
dense_35 (Dense)             (None, 512)               262656    
_________________________________________________________________
dense_36 (Dense)             (None, 512)               262656    
_________________________________________________________________
dense_37 (Dense)             (None, 3)                 1539      
=================================================================
Total params: 101,190,659
Trainable params: 101,190,659
Non-trainable params: 0
_________________________________________________________________
&lt;/code&gt;&lt;/pre&gt;&lt;/div&gt;&lt;/div&gt;

&lt;div class=&quot;language-python highlighter-rouge&quot;&gt;&lt;div class=&quot;highlight&quot;&gt;&lt;pre class=&quot;highligh
…
